vanilla/model.pth (torch, 13179 bytes, 13 tensors)

layers.layer_0.weight f4 [20, 2]
0.21512331 0.39385942 0.7488461 -0.2830518 0.13536243 0.3219849 0.54513663 -0.84443563
-0.006765312 -0.83283657 0.90368587 0.5063618 -0.5846678 -0.51815003 -0.5659589 0.8795501
0.17333476 -0.6942671 -0.345906 -1.5268897 -0.6074025 0.020196883 -1.2227153 0.07363413
0.8023306 -0.72099966 -0.7118097 -0.095273346 0.43183696 0.027024785 -0.6993017 -0.3597965
-0.6267792 -0.11156211 -0.31770486 0.7834567 -0.029481702 0.6560363 -0.84481585 -0.09878082
00000000: 4949 5c3e f1a7 c93e 61b4 3f3f 2aec 90be
00000010: 739c 0a3e 34db a43e 138e 0b3f ef2c 58bf
00000020: 8daf ddbb c734 55bf f557 673f eda0 013f
00000030: caac 15bf 7ba5 04bf afe2 10bf 322a 613f
00000040: ab7e 313e 7dbb 31bf 971a b1be 1f71 c3bf
00000050: bb7e 1bbf ef73 a53c ef81 9cbf 7ecd 963d
00000060: 8a65 4d3f 6f93 38bf 2939 36bf ac1e c3bd
00000070: bc19 dd3e 1563 dd3c 7005 33bf 3f37 b8be
00000080: 9a74 20bf ad7a e4bd 36aa a2be 9e90 483f
00000090: 9c83 f1bc fff1 273f da45 58bf 994d cabd

layers.layer_0.bias f4 [20]
0.25415373 0.35938215 0.023022728 -0.3227639 0.5452746 0.48548764 0.28238744 0.15094614
-0.206164 0.61597854 -0.13944401 1.410314 0.45805955 0.863654 -0.32850373 0.071821794
-0.028895533 -0.115838245 -0.4117831 -0.44417262
00000000: 7020 823e f000 b83e 299a bc3c 4f41 a5be
00000010: 1e97 0b3f d691 f83e 1695 903e a091 1a3e
00000020: a81c 53be c5b0 1d3f 69ca 0ebe 2b85 b43f
00000030: c886 ea3e 6e18 5d3f a431 a8be 4e17 933d
00000040: 53b6 ecbc 9a3c edbd 3cd5 d2be 986a e3be

layers.layer_1.weight f4 [20, 20]
-0.21089503 -0.21600215 -0.35831147 -0.24341173 0.1444026 -0.36380193 0.1598441 0.33316398
-0.11050488 0.0041316887 0.22833653 0.047137503 0.18278833 -0.13618498 -0.20810096 0.013999239
-0.10414124 -0.030598355 -0.17471403 0.19694261 -0.016314413 -0.17033906 -0.06740291 -0.12738428
0.6352065 0.14107826 -0.06721271 0.029334407 0.13948612 0.24699704 -0.050273817 0.39960304
-0.1869832 0.31074142 -0.31130797 0.18250018 0.21993287 -0.13791579 -0.6260123 0.13689324
-0.014721639 -0.175472 0.16192646 -0.42185354 -0.36004576 0.18871804 0.019686358 0.23925161
-0.3804908 -0.35607854 0.1462982 -0.12789568 -0.6958745 -0.029323563 -0.029486096 -0.03473815
0.038842145 0.5080626 0.36330324 0.19850832 0.10734482 0.38458544 0.04451566 0.27262086
0.1736411 0.05341042 0.023098564 -0.0018726808 -0.107830204 0.033178635 -0.14114776 0.046351116
0.36037308 -0.011295836 0.085262656 -0.021080688 -0.021544328 -0.1921575 -0.09775702 -0.3475132
0.026433336 0.2878169 0.11032723 0.092913285 -0.059420455 -0.030857496 -0.09156225 -0.04453375
0.06809548 -0.24070841 -0.18404073 -0.034624618 0.30753446 -0.104497656 0.33672497 -0.17809096
-0.11383383 -0.37995046 -0.0032331264 -0.33360597 -0.044306487 -0.3141546 -0.33816615 -0.065103024
0.09045312 -0.031157415 0.23065858 0.13198258 -0.061347242 0.2590143 0.11304909 0.20113173
-0.018013507 -0.18892182 -0.22905612 0.17174025 0.06534287 0.256012 -0.22072645 0.24162483
0.45939165 0.03095983 0.4249712 -0.65891165 -0.24463834 0.2444723 -0.100941114 0.92377484
-0.5236608 -0.16752648 -0.017559897 0.1323319 -0.32210726 0.1380835 0.0613908 0.07996516
-0.16229604 1.5684421 0.42358464 -0.061734337 0.12342981 0.3193008 -0.059652396 0.03304233
0.26640096 0.040239245 -0.19754963 -0.20444648 0.10025469 0.20497349 -0.3073582 -0.08721752
0.31631628 0.00062765647 -0.016820004 -0.25264403 -0.24445409 0.03727043 -0.19966103 0.002708815
0.007021038 0.23315701 -0.21634395 -0.14136659 0.09416057 -0.11335787 -0.068774134 0.2333673
-0.21546261 -0.029816618 0.07597861 -0.13820648 0.2808062 0.11982921 0.26237962 0.27494335
0.17290787 0.08717294 0.0327801 0.21177651 -0.16988638 -0.10073243 -0.016506115 0.10631667
-0.08823007 0.22255129 -0.2493144 -0.094432116 0.06718421 0.07168996 0.18692735 0.27724707
-0.321312 -0.09312639 -0.19552016 -0.29898867 -0.15162157 -0.17787795 -0.15034655 -0.13242055
0.080230534 -0.16767354 0.13139947 -0.14171268 0.13596393 -0.10614346 0.22828403 0.032270584
-0.23232308 0.27253506 -0.018372552 -1.0910975 0.09142496 -0.68013644 0.5254051 -0.012840074
0.005855127 -0.15497847 0.041801386 0.097647 0.2032532 -0.44786537 0.8426275 -0.09583427
-0.977815 0.5572313 -0.52650136 0.7045304 -0.5584454 -1.885164 -0.19678017 -0.3964607
-0.8639946 -0.43713352 0.10544113 -0.38145667 -0.24682924 0.855019 0.9713961 -0.13263108
0.06473025 0.0408498 -0.11041902 0.31553867 0.24262266 0.0037248651 0.17899978 -0.2804529
0.14836788 0.06099987 -0.11681043 0.06296277 0.0081042405 0.13374642 0.012907703 0.010495522
00000000: def4 57be ab2f 5dbe 9a74 b7be ed40 79be
00000010: 46de 133e 3f44 babe 2cae 233e 7894 aa3e
00000020: 6250 e2bd 1e63 873b 0dd1 693e 4113 413d
00000030: dd2c 3b3e 1374 0bbe 6b18 55be 105d 653c
00000040: 0148 d5bd 67a9 fabc 3ce8 32be 53ab 493e
00000050: cea5 85bc 5d6d 2ebe 890a 8abd 0671 02be
00000060: e59c 223f d276 103e d1a6 89bd b64e f03c
00000070: 73d5 0e3e cbec 7c3e ebeb 4dbd c598 cc3e
00000080: 8678 3fbe 8019 9f3e c263 9fbe 54e1 3a3e
00000090: 1536 613e cc39 0dbe 5842 20bf be2d 0c3e
000000a0: 0833 71bc efae 33be 0dd0 253e 30fd d7be
000000b0: eb57 b8be 4d3f 413e 4945 a13c 60fe 743e
000000c0: b1cf c2be ed4f b6be 32cf 153e 16f7 02be
000000d0: d524 32bf f837 f0bc d38c f1bc 9749 0ebd
000000e0: f118 1f3d 6410 023f e202 ba3e c445 4b3e
000000f0: 9ad7 db3d 62e8 c43e 0d56 363d f694 8b3e
00000100: f9ce 313e e2c4 5a3d 3339 bd3c be74 f5ba
00000110: 15d6 dcbd 52e6 073d 0a89 10be abda 3d3d
00000120: d282 b83e 2c12 39bc 309e ae3d 68b1 acbc
00000130: bb7d b0bc f0c4 44be d534 c8bd 40ed b1be
00000140: b98a d83c bd5c 933e 3ef3 e13d 5249 be3d
00000150: dd62 73bd dcc8 fcbc fd84 bbbd 0569 36bd
00000160: a575 8b3d 447c 76be 2c75 3cbe 8bd2 0dbd
00000170: 2875 9d3e de02 d6bd 3767 ac3e 7a5d 36be
00000180: b621 e9bd de88 c2be dce2 53bb 67ce aabe
00000190: b87a 35bd dfd8 a0be 1d24 adbe bc54 85bd
000001a0: 7c3f b93d d63d ffbc c331 6c3e 7126 073e
000001b0: 3f47 7bbd 869d 843e 4886 e73d 7af5 4d3e
000001c0: 1091 93bc b974 41be b08d 6abe addc 2f3e
000001d0: 7cd2 853d 0114 833e 1d06 62be 806c 773e
000001e0: 6235 eb3e 789f fd3c d395 d93e 6fae 28bf
000001f0: 7982 7abe f256 7a3e 37ba cebd 827c 6c3f
00000200: a20e 06bf 108c 2bbe c6d9 8fbc 0382 073e
00000210: 3eeb a4be c365 0d3e eb74 7b3d c6c4 a33d
00000220: ef30 26be b6c2 c83f 16e0 d83e 25dd 7cbd
00000230: c5c8 fc3d 657b a33e 1256 74bd 6557 073d
00000240: b565 883e e8d1 243d 734a 4abe 6b5a 51be
00000250: 5552 cd3d 92e4 513e 0e5e 9dbe 199f b2bd
00000260: 35f4 a13e 5089 243a 1bca 89bc 8f5a 81be
00000270: 2c52 7abe e1a8 183d f173 4cbe 6086 313b
00000280: bc10 e63b b6c0 6e3e 4589 5dbe 67c2 10be
00000290: 42d7 c03d 2c28 e8bd 74d9 8cbd d6f7 6e3e
000002a0: 3ba2 5cbe fb41 f4bc ac9a 9b3d 0086 0dbe
000002b0: d5c5 8f3e 0469 f53d 9f56 863e 60c5 8c3e
000002c0: c30e 313e ba87 b23d 6d44 063d f1db 583e
000002d0: b2f6 2dbe ce4c cebd d537 87bc 8ebc d93d
000002e0: f8b1 b4bd 7ce4 633e 464c 7fbe a065 c1bd
000002f0: e097 893d 30d2 923d e269 3f3e 54f3 8d3e
00000300: 0283 a4be 0cb9 bebd 7036 48be 0b15 99be
00000310: af42 1bbe a325 36be 72f4 19be 4199 07be
00000320: e84f a43d 9db2 2bbe 958d 063e 211d 11be
00000330: 213a 0b3e be61 d9bd 4ac3 693e 292e 043d
00000340: 1ae6 6dbe b789 8b3e 0982 96bc 15a9 8bbf
00000350: 023d bb3d 6c1d 2ebf f380 063f 2c5f 52bc
00000360: 5ddc bf3b adb2 1ebe ee37 2b3d 26fb c73d
00000370: 9b21 503e 9c4e e5be 70b6 573f c244 c4bd
00000380: 1552 7abf b6a6 0e3f cbc8 06bf 1b5c 343f
00000390: 47f6 0ebf 0e4d f1bf be80 49be e6fc cabe
000003a0: c02e 5dbf f7cf dfbe 85f1 d73d 4a4e c3be
000003b0: cec0 7cbe 86e2 5a3f 6aad 783f 71d0 07be
000003c0: 4b91 843d 1f52 273d 5e23 e2bd 498e a13e
000003d0: 1372 783e de1c 743b b84b 373e 8697 8fbe
000003e0: c0ed 173e 00db 793d 4f3a efbd a0f2 803d
000003f0: a6c7 043c d2f4 083e d57a 533c 69f5 2b3c

layers.layer_1.bias f4 [20]
-0.2195914 0.20797224 0.10592405 0.16331597 0.074249774 -0.2854153 0.20224276 0.22736982
-0.09147963 -0.023305835 -0.17463054 -0.37599754 -0.15223329 0.20195875 0.0037679335 0.07762265
0.081541404 0.039994415 0.19284368 -0.019454334
00000000: 91dc 60be adf6 543e b5ee d83d 4d3c 273e
00000010: 4410 983d f421 92be ba18 4f3e a2d3 683e
00000020: ac59 bbbd e1eb bebc 59d2 32be c082 c0be
00000030: 0be3 1bbe 46ce 4e3e 6fef 763b a0f8 9e3d
00000040: 2eff a63d 2fd1 233d d078 453e b25e 9fbc

layers.layer_2.weight f4 [20, 20]
-0.0027232906 -0.1448469 0.017080246 0.032841004 -0.04884422 -0.1654914 -0.058240272 0.16313988
-0.03861745 -0.069049925 -0.036162186 0.36924314 -0.28948125 -0.022112576 0.014429275 0.21995004
0.080627404 -0.06365715 0.34718686 -0.118852936 0.22939606 0.2166467 -0.12994757 -0.51307696
-0.15128182 0.013201939 0.10437919 -0.21981151 0.13216475 -0.29560292 0.03852727 -0.06598581
-0.18957292 -0.11430051 0.17114022 -0.29009834 -0.14148262 0.09125271 -0.275633 -0.10940432
0.2978434 -0.07993894 0.30103466 -0.08198819 0.017440999 0.01708666 -0.024620822 -0.18731248
-0.10757001 -0.037936058 0.2484503 0.012446191 -0.21282637 -0.031116381 0.07843235 0.02426696
0.1533353 0.14395557 0.11068556 0.14387578 0.03719708 0.2695395 0.1383558 -0.20811057
0.2123329 0.01206916 -0.034652174 0.048875935 -0.0077750054 -0.36884478 -0.011490371 0.4000967
-0.41000575 0.13756718 -0.13437693 0.29992542 -0.211323 0.024486499 0.39329252 0.08267627
-0.19611225 0.05326409 -0.22453684 0.31411695 -0.100786485 -0.24969137 -0.19271648 0.16765371
0.018955158 0.26833126 0.20970812 -0.023395484 -0.05994581 0.2041854 -0.2774145 0.06509636
0.107723854 0.07547547 0.065450154 0.2759631 0.051531468 0.13543272 -0.27375442 -0.084244005
0.19585513 0.08955238 -0.61253905 0.29701987 -0.018570978 0.21425737 0.024304636 -0.19623423
0.39220336 0.19873048 -0.5724293 0.09106289 0.49335158 -0.28845033 -0.30897516 0.18218115
-0.19472155 0.039194807 -0.20015956 -0.3118691 -0.018080799 -0.14044143 -0.20103997 -0.264248
-0.24685366 0.32754767 -0.22597606 0.40089995 0.14475138 -0.1829632 0.0068739043 0.13053983
-0.1457411 0.041574694 0.16616563 -0.22814316 0.19333068 0.12830648 0.3554618 -0.28442687
-0.25487056 0.25121477 0.22610626 -0.3142269 0.118600145 0.03284038 -0.09066465 0.29312938
-0.32462093 -0.20072278 0.2507461 -0.151624 -0.44910482 0.014132894 -0.10607555 0.021238877
-0.12844546 0.36320308 -0.39051202 0.30811915 0.07590404 -0.036103524 0.0053389333 0.014625817
-0.15505412 -0.2698586 0.4139634 -0.5326286 0.25987342 0.3911931 -0.034565996 -0.03734608
0.37750757 -0.06878398 -0.015790056 0.2744125 0.27922356 0.08542554 0.32678956 -0.29845402
-0.26671556 0.28445327 -0.1428999 -0.24066982 0.06152643 -0.16920537 -0.13455634 -0.073255956
0.15404923 0.27469814 0.05667612 -0.18793833 -0.21499635 0.14753358 -0.046719808 0.13975887
-0.124668196 -0.1338829 -0.1706509 0.1706689 0.1083567 -0.22224554 0.11066477 -0.13619737
-0.29921764 0.17745219 -0.3534202 0.19162305 0.23700103 0.12438643 0.03530192 0.123251796
0.10913872 0.03772569 0.2413182 0.021441054 -0.32465595 -0.14137875 -0.22453047 -0.060209364
0.23150074 -0.05593823 0.30195922 -0.045186255 -0.23825115 0.061979976 -0.01388063 0.33757105
0.15897733 -0.037549578 -0.00043387437 0.21861571 -0.121258475 -0.26060677 0.34109235 -0.1993786
-0.2563761 -0.33793882 -0.1164591 -0.117000595 0.016008744 -0.389256 0.09022594 -0.020045498
-0.2730801 0.20614608 -0.06616486 0.25564006 -0.1966682 0.17239945 -0.10104926 0.4551853
00000000: 3c79 32bb bf52 14be dfeb 8b3c 4a84 063d
00000010: e010 48bd 9476 29be 5a8d 6ebd 240e 273e
00000020: 552d 1ebd 0c6a 8dbd cd1e 14bd 700d bd3e
00000030: e336 94be 6f25 b5bc c468 6c3c 953a 613e
00000040: fb1f a53d ae5e 82bd 7ac2 b13e 2b69 f3bd
00000050: cde6 6a3e a2d8 5d3e fa10 05be 0359 03bf
00000060: 9fe9 1abe f24c 583c c2c4 d53d 4516 61be
00000070: 3256 073e 4459 97be c5ce 1d3d 9123 87bd
00000080: 671f 42be 6316 eabd 623f 2f3e c587 94be
00000090: d2e0 10be b3e2 ba3d c51f 8dbe 5f0f e0bd
000000a0: ee7e 983e 07b7 a3bd 3721 9a3e 6de9 a7bd
000000b0: 6de0 8e3c 53f9 8b3c 9bb1 c9bc d8ce 3fbe
000000c0: aa4d dcbd d762 1bbd c169 7e3e 1ceb 4b3c
000000d0: 28ef 59be c8e7 febc 24a1 a03d 81cb c63c
000000e0: ee03 1d3e 1769 133e 1caf e23d 2c54 133e
000000f0: f75b 183d 1501 8a3e 25ad 0d3e f01a 55be
00000100: cc6d 593e babd 453c 70ef 0dbd 2232 483d
00000110: 79c5 febb 39d9 bcbe 1c42 3cbc 7ad9 cc3e
00000120: 46ec d1be 69de 0c3e 1b9a 09be d38f 993e
00000130: 0e65 58be e997 c83c a35d c93e 2d52 a93d
00000140: a6d1 48be 722b 5a3d fcec 65be f0d3 a03e
00000150: 2569 cebd 18af 7fbe 7857 45be 6aad 2b3e
00000160: d947 9b3c b762 893e babd 563e e3a7 bfbc
00000170: bd89 75bd fa15 513e 4609 8ebe 3e51 853d
00000180: 539e dc3d e292 9a3d bb0a 863d 094b 8d3e
00000190: a912 533d e0ae 0a3e 8a29 8cbe 1f88 acbd
000001a0: 3f8e 483e 3d67 b73d 5ccf 1cbf fd12 983e
000001b0: 2a22 98bc 4966 5b3e 841a c73c a0f1 48be
000001c0: e1ce c83e 0180 4b3e ba8a 12bf 2e7f ba3d
000001d0: 9498 fc3e c3af 93be fe31 9ebe b28d 3a3e
000001e0: 1665 47be bc8a 203d a1f6 4cbe 4fad 9fbe
000001f0: 2f1e 94bc e1cf 0fbe 6cdd 4dbe 844b 87be
00000200: 35c7 7cbe 54b4 a73e 4566 67be c242 cd3e
00000210: b539 143e b55a 3bbe 7d3e e13b 3cac 053e
00000220: 283d 15be 3a4a 2a3d 5327 2a3e 5c9e 69be
00000230: 7af8 453e c662 033e 17ff b53e 66a0 91be
00000240: 657e 82be 399f 803e 6688 673e 59e2 a0be
00000250: a2e4 f23d a283 063d 63ae b9bd 0e15 963e
00000260: b734 a6be 468a 4dbe cb61 803e 5243 1bbe
00000270: 11f1 e5be a78d 673c 233e d9bd 27fd ad3c
00000280: 3587 03be c1f5 b93e 31f1 c7be cbc1 9d3e
00000290: 9473 9b3d 4ae1 13bd 38f2 ae3b 1fa1 6f3c
000002a0: 82c6 1ebe e82a 8abe 03f3 d33e 595a 08bf
000002b0: 210e 853e 764a c83e 1395 0dbd 34f8 18bd
000002c0: ac48 c13e 9ede 8cbd 265a 81bc cc7f 8c3e
000002d0: 64f6 8e3e 96f3 ae3d f650 a73e f7ce 98be
000002e0: f18e 88be dca3 913e 5a54 12be 2672 76be
000002f0: 2303 7c3d 2c44 2dbe 23c9 09be 3807 96bd
00000300: 15bf 1d3e 3ca5 8c3e 3825 683d e872 40be
00000310: 0128 5cbe 0b13 173e 455d 3fbd f31c 0f3e
00000320: 0a52 ffbd 9918 09be 1cbf 2ebe d4c3 2e3e
00000330: 1eea dd3d 5694 63be 36a4 e23d 5377 0bbe
00000340: 0e33 99be 07b6 353e 7ef3 b4be d538 443e
00000350: 66b0 723e 50be fe3d bf98 103d 706b fc3d
00000360: 1f84 df3d 4186 1a3d 1e1c 773e 26a5 af3c
00000370: 4e39 a6be 97c5 10be 51eb 65be 189e 76bd
00000380: 880e 6d3e 7c1f 65bd 669a 9a3e 3915 39bd
00000390: 1cf8 73be b7de 7d3d 956b 63bc 1dd6 ac3e
000003a0: f4ca 223e 96cd 19bd a279 e3b9 ccdc 5f3e
000003b0: 5d56 f8bd 406e 85be a8a3 ae3e e729 4cbe
000003c0: ba43 83be 5106 adbe 1c82 eebd 029e efbd
000003d0: c524 833c 904c c7be 61c8 b83d 7536 a4bc
000003e0: 28d1 8bbe f517 533e 7181 87bd 41e3 823e
000003f0: 6363 49be 7b89 303e eaf2 cebd 0c0e e93e

layers.layer_2.bias f4 [20]
0.0870586 -0.13159592 -0.010851461 -0.17849705 0.17485957 -0.17918025 -0.24713889 -0.16444391
0.15747352 -0.035141446 -0.25418204 0.30232742 -0.016829124 -0.09563239 -0.04937 -0.120545864
-0.1740454 0.07356246 -0.084401056 0.23982725
00000000: c74b b23d 15c1 06be 54ca 31bc eec7 36be
00000010: 630e 333e 077b 37be fa11 7dbe fc63 28be
00000020: bd40 213e 7af0 0fbd 2624 82be a9ca 9a3e
00000030: 3bdd 89bc eada c3bd 3238 4abd c0e0 f6bd
00000040: f538 32be eaa7 963d 76da acbd 4695 753e

layers.layer_3.weight f4 [20, 20]
0.24384901 0.11856443 0.541596 0.38455853 -0.081567846 -0.103027806 0.347863 0.35169205
-0.2694373 0.09735175 0.18176608 -0.08771815 0.23316243 -0.0592181 -0.020451384 0.08354302
0.5333965 0.13066706 0.14782074 -0.36218566 0.10745149 -0.30010524 0.04020067 0.06304192
0.1772023 0.07426476 -0.13222238 0.2958465 0.065065615 0.23958802 -0.0027903777 -0.020544225
0.07994144 -0.0074551166 0.042624053 -0.2785207 -0.02645296 0.24736771 0.0042053303 -0.15411061
-0.13000898 -0.07004568 -0.15720198 -0.25878757 0.20261556 0.24969396 0.22046305 -0.35901475
-0.034716103 -0.23179105 0.18282612 -0.09023051 0.23855446 -0.22332022 -0.0026523825 -0.1552158
-0.24302863 0.1497277 -0.16610585 0.6251557 0.21804085 -0.106630504 -0.22705656 0.20886308
0.2945257 0.19995989 0.33624518 -0.019076368 0.237952 0.017374193 0.11107064 0.30455798
0.09167562 -0.27995536 -0.18174295 0.3445436 -0.11651762 0.104191184 0.13078782 0.28320655
-0.14649457 0.122327045 0.18124354 -0.07851995 0.0023092711 0.07691043 0.08266896 -0.16339763
0.17404938 -0.18683249 -0.018531732 0.10395042 -0.11076266 0.0021589831 -0.115788855 0.16342363
-0.2850738 -0.2625118 0.046343528 -0.05747216 0.107022524 0.10588902 -0.13796794 0.050653286
0.12536414 -0.037737206 -0.20075545 0.2502363 0.2851611 0.11104604 -0.15705185 -0.031559344
0.14558877 0.19722861 -0.2085672 -0.0030713195 0.08039224 0.24462937 0.05516838 0.13854267
-0.38884005 0.2476072 -0.0022071232 -0.2738933 -0.10017607 -0.040073846 -0.25796255 -0.08045416
0.1288965 0.029747823 -0.12477735 -0.34998953 -0.13782452 0.20556864 0.101085626 0.07458498
0.22041462 -0.2903895 0.17055155 -0.16317518 0.21614666 0.14885598 -0.2201807 -0.09614881
0.07661413 -0.13367046 0.02391506 -0.11881998 0.33170402 0.047669247 0.011279016 -0.012197363
-0.0105683375 -0.29741016 0.022359414 -0.015748026 -0.2301561 0.097934954 -0.30876833 0.35744768
-0.13117602 0.57477754 0.090781055 -0.13140361 -0.38312078 0.44318128 0.40354463 -0.19780736
0.052186724 0.19105205 -0.23577285 -0.2270936 -0.210948 0.0015553819 -0.012382651 0.6410899
-0.017129052 -0.48981854 -0.5536303 0.35172045 -0.18296956 0.068513446 -0.11774653 0.020707177
0.16692786 0.14580086 -0.027734602 0.034181837 0.10454561 -0.06657932 -0.15841344 0.02167534
0.15941152 -0.19562113 -0.1529657 0.21866588 -0.103617124 0.029711695 -0.21695846 0.22512542
-0.118028075 -0.072421454 -0.018751208 -0.24282248 0.265082 0.044531014 -0.20772858 -0.39329308
0.5132206 -0.098177545 -0.04173486 -0.242414 -0.37738818 0.07378071 0.024064062 -0.5363337
-0.39724505 -0.14490873 0.20171486 0.15580201 0.0642288 -0.20965339 0.06946156 0.1171669
-0.023232125 0.2183907 0.048343163 -0.28312615 0.05881841 -0.15633266 -0.058552716 0.20024703
0.21754652 -0.28920883 0.07915495 -0.12498074 -0.034730505 0.0104838535 0.116186455 0.28205606
0.10376023 0.13206734 0.054205444 0.14173833 0.1659005 -0.23827651 0.027544895 0.14680295
-0.359792 -0.18040743 -0.18932976 -0.20591314 0.12048872 -0.032416604 -0.17410873 -0.079038456
00000000: 8eb3 793e e8d1 f23d 09a6 0a3f dbe4 c43e
00000010: 0b0d a7bd 3e00 d3bd 191b b23e fb10 b43e
00000020: b0f3 89be 5b60 c73d e320 3a3e 93a5 b3bd
00000030: 22c2 6e3e ae8e 72bd a989 a7bc 9a18 ab3d
00000040: ac8c 083f 96cd 053e 525e 173e 6670 b9be
00000050: 870f dc3d 65a7 99be 75a9 243d 1f1c 813d
00000060: 8574 353e 1f18 983d 4e65 07be 3179 973e
00000070: 1f41 853d 9056 753e c5de 36bb 5d4c a8bc
00000080: 56b8 a33d 0d4a f4bb 8f96 2e3d 449a 8ebe
00000090: e1b3 d8bc f64d 7d3e decc 893b 2ccf 1dbe
000000a0: 1321 05be 1c74 8fbd 8ef9 20be ce7f 84be
000000b0: 747a 4f3e c6af 7f3e 11c1 613e c8d0 b7be
000000c0: 7932 0ebd a25a 6dbe c536 3b3e c6ca b8bd
000000d0: 9f47 743e 0eae 64be 98d3 2dbb e4f0 1ebe
000000e0: 7fdc 78be 3852 193e a717 2abe 340a 203f
000000f0: 1a46 5f3e 1861 dabd 8481 68be 34e0 553e
00000100: 13cc 963e 49c2 4c3e 5428 ac3e 0b46 9cbc
00000110: b0a9 733e 5354 8e3c 0179 e33d 06ef 9b3e
00000120: 6dc0 bb3d 4f56 8fbe d31a 3abe 0568 b03e
00000130: caa0 eebd 3062 d53d 3eed 053e 7300 913e
00000140: ac02 16be 9a86 fa3d e897 393e 11cf a0bd
00000150: 2457 173b 3783 9d3d 584e a93d b551 27be
00000160: 003a 323e 0451 3fbe dccf 97bc f5e3 d43d
00000170: 89d7 e2bd ba7d 0d3b b522 edbd 8658 273e
00000180: 31f5 91be f267 86be b6d2 3d3d ed67 6bbd
00000190: a02e db3d 58dc d83d 7847 0dbe d279 4f3d
000001a0: 755f 003e 5492 1abd d692 4dbe f91e 803e
000001b0: a300 923e 1b6c e33d 33d2 20be 5f44 01bd
000001c0: 3915 153e 4cf6 493e a492 55be 3148 49bb
000001d0: b0a4 a43d 1f80 7a3e 3df8 613d 21de 0d3e
000001e0: 0b16 c7be be8c 7d3e 62a5 10bb be3b 8cbe
000001f0: 1d29 cdbd 7924 24bd ab13 84be 27c5 a4bd
00000200: 72fd 033e b5b1 f33c 448b ffbd d431 b3be
00000210: df21 0dbe 9680 523e fb05 cf3d 03c0 983d
00000220: 5fb4 613e efad 94be 11a5 2e3e 6517 27be
00000230: 8d55 5d3e b46d 183e 0d77 61be abe9 c4bd
00000240: dee7 9c3d e9e0 08be 84e9 c33c e457 f3bd
00000250: 1cd5 a93e d440 433d 9fcb 383c 73d7 47bc
00000260: d226 2dbc 2546 98be 172b b73c 0102 81bc
00000270: 0aae 6bbe 1f92 c83d e216 9ebe 6203 b73e
00000280: 0253 06be 9f24 133f 6beb b93d ab8e 06be
00000290: 6828 c4be a8e8 e23e 679d ce3e 038e 4abe
000002a0: bfc1 553d 26a3 433e 706e 71be 3a8b 68be
000002b0: c102 58be f5dd cb3a 9ae0 4abc 781e 243f
000002c0: 3a52 8cbc 7fc9 fabe b7ba 0dbf b414 b43e
000002d0: 5f5c 3bbe c750 8c3d 1825 f1bd 19a2 a93c
000002e0: 23ef 2a3e d24c 153e ad33 e3bc 4102 0c3d
000002f0: 021c d63d bd5a 88bd 2237 22be 7c90 b13c
00000300: c63c 233e e850 48be 0aa3 1cbe f3e9 5f3e
00000310: 3735 d4bd f165 f33c 5c2a 5ebe 4787 663e
00000320: b4b8 f1bd b351 94bd 229c 99bc 75a6 78be
00000330: d4b8 873e 2766 363d cdb6 54be b65d c9be
00000340: 6d62 033f 4f11 c9bd 2cf2 2abd 603b 78be
00000350: 0639 c1be 571a 973d ff21 c53c 2a4d 09bf
00000360: b463 cbbe f462 14be 578e 4e3e 908a 1f3e
00000370: 648a 833d 61af 56be dd41 8e3d 33f5 ef3d
00000380: 4c51 bebc d0a1 5f3e 7b03 463d e9f5 90be
00000390: 93eb 703d ab15 20be f9d4 6fbd 8f0d 4d3e
000003a0: 84c4 5e3e 2e13 94be fe1b a23d e7f5 ffbd
000003b0: 9341 0ebd 78c4 2b3c 2af3 ed3d a769 903e
000003c0: 3e80 d43d a93c 073e 8706 5e3d da23 113e
000003d0: d2e1 293e c2fe 73be d5a5 e13c 8353 163e
000003e0: a836 b8be babc 38be a9df 41be e5da 52be
000003f0: cac2 f63d 46c7 04bd 8f49 32be eade a1bd

layers.layer_3.bias f4 [20]
-0.08280049 0.13935503 -0.08725592 0.13943872 -0.07796297 0.041682776 -0.10611575 -0.054765236
0.032871738 -0.19792457 0.3431395 0.204522 0.15596671 -0.032466356 -0.06512952 -0.22928427
-0.14814243 0.07747245 0.10305611 -0.21603584
00000000: 4e93 a9bd 16b3 0e3e 3bb3 b2bd 06c9 0e3e
00000010: 0dab 9fbd 8fbb 2a3d 3753 d9bd 8351 60bd
00000020: 84a4 063d bdac 4abe fbaf af3e 376e 513e
00000030: bdb5 1f3e 71fb 04bd a062 85bd 7fc9 6abe
00000040: a6b2 17be e0a9 9e3d 150f d33d 8038 5dbe

layers.layer_4.weight f4 [20, 20]
0.09502817 0.30583784 -0.24877325 -0.23664819 0.03357076 -0.020957768 -0.098365165 -0.2408785
-0.35477784 -0.06532219 0.31917217 0.011284986 0.084012516 0.1209009 0.09868766 -0.059226394
-0.011667377 -0.29289332 -0.23747413 0.24009916 -0.13788146 -0.25229788 0.14339142 0.13258392
0.24650985 -0.30510718 0.34305713 -0.11377138 0.41241243 -0.15931123 -0.17955908 -0.23972602
-0.20369166 -0.14640972 0.15304607 0.19337088 -0.06108257 0.19132523 -0.094939105 -0.13184206
-0.21279837 0.010605158 0.00127084 -0.2708854 -0.19097926 0.10682538 0.27343935 -0.032597225
0.043295477 -0.23478879 0.36602527 -0.021993693 0.06422112 0.28832254 0.12124253 0.12902145
0.44814727 -0.12957238 0.0023669398 -0.012116943 -0.01103524 -0.5094621 0.033070162 0.12831475
0.13073315 0.044380374 -0.17429575 -0.11357437 0.5136082 0.058391746 -0.09615613 -0.14109008
-0.23415898 0.1500027 0.028561583 0.27856213 0.012299816 0.12597878 0.0808058 -0.07564947
-0.37666768 -0.15977708 -0.08057832 -0.1652388 0.27373293 -0.099646695 -0.11264883 0.056129146
0.4262729 0.12125047 0.17255321 0.12987643 -0.021760665 0.14093053 0.13522296 0.049633663
-0.16868743 -0.16557983 0.18808876 -0.221853 -0.07482125 0.025802098 -0.29053444 -0.22383462
0.008110175 -0.14988266 0.25974724 -0.12918767 -0.27189952 -0.09350097 -0.05343009 -0.18835594
-0.14227583 0.004639438 0.14116755 0.08507403 -0.040523656 -0.28422767 0.040756293 0.050372805
-0.17491642 -0.09752293 0.033058263 0.14665416 0.078633316 -0.0773579 -0.3047817 0.033345815
-0.0565823 0.065870605 -0.22675093 0.1220723 0.096096486 -0.20970507 0.045371916 -0.07859776
-0.18044804 -0.112214945 0.1969474 -0.088642836 0.09101472 -0.20425354 0.08723668 -0.02740161
0.14032978 0.10945549 -0.25869182 0.28516862 0.3764167 0.10360622 -0.13572414 -0.14875077
0.17938745 -0.07155228 -0.24073865 -0.13694292 -0.25808382 -0.17829446 -0.041326147 -0.0006168753
0.14934824 -0.0122732045 0.25954038 0.16778532 0.0638011 0.08343475 0.0530563 0.07495885
0.172789 -0.066310674 0.066509284 0.16596837 0.16996218 -0.22662587 0.06445929 -0.040178154
0.030035328 -0.13216184 -0.030053245 -0.050945833 -0.29614517 0.09962934 0.20081952 0.23660496
-0.027521258 -0.018576564 -0.1818469 0.34652573 -0.2755002 -0.09318862 0.22830208 0.29036984
-0.20167035 -0.20393613 -0.121450864 -0.24585733 -0.41267797 -0.14363196 -0.1838922 -0.43672988
0.14466071 -0.16308643 0.11882563 0.33915356 -0.13282616 -0.22606733 -0.2872379 -0.031736564
-0.1469663 -0.0035109727 -0.19703451 0.009324999 0.092359364 0.1093033 -0.14514789 0.10668233
-0.32761553 0.26219338 0.20332247 0.16520298 0.45624426 -0.09122489 -0.07497827 -0.34664732
-0.18485297 -0.09482976 0.13430102 -0.27035943 0.09941454 0.1948138 -0.49997777 -0.3048331
0.21358748 0.03713722 0.23716807 0.32473463 0.042780727 -0.026171556 0.11775117 0.47175243
0.34007725 0.20062934 -0.29176185 -0.16318795 -0.18778105 0.09445178 -0.024645818 0.12113568
0.024672434 -0.13087235 0.0071171816 0.054089665 0.02750692 0.29807144 0.26763082 -0.046076182
00000000: 219e c23d c796 9c3e 6abe 7ebe e753 72be
00000010: 7e81 093d a0af abbc ad73 c9bd daa8 76be
00000020: 71a5 b5be a4c7 85bd 896a a33e a9e4 383c
00000030: c10e ac3d e49a f73d c21c ca3d 6097 72bd
00000040: 8728 3fbc 1df6 95be 6b2c 73be 8edc 753e
00000050: cc30 0dbe 302d 81be 33d5 123e 14c4 073e
00000060: 146d 7c3e 0237 9cbe 2fa5 af3e f800 e9bd
00000070: b927 d33e 7c22 23be 56de 37be bd7a 75be
00000080: 8c94 50be 6eec 15be 1cb8 1c3e 0403 463e
00000090: b831 7abd c3ea 433e 6f6f c2bd 9b01 07be
000000a0: d1e7 59be 42c1 2d3c 5092 a63a 7eb1 8abe
000000b0: 1190 43be 44c7 da3d 3e00 8c3e ab84 05bd
000000c0: 9956 313d 796c 70be aa67 bb3e 1e2c b4bc
000000d0: 5d86 833d 039f 933e 014e f83d 331e 043e
000000e0: 8f73 e53e 9fae 04be a91e 1b3b 2486 46bc
000000f0: 27cd 34bc 1c6c 02bf 9474 073d f164 033e
00000100: e9de 053e 32c8 353d 967a 32be ae99 e8bd
00000110: d47b 033f 2f2c 6f3d 81ed c4bd eb79 10be
00000120: 5fc7 6fbe 4f9a 193e fbf9 e93c b29f 8e3e
00000130: 2b85 493c 9500 013e 837d a53d 1cee 9abd
00000140: 96da c0be 9a9c 23be 3f06 a5bd 5c34 29be
00000150: b926 8c3e 9113 ccbd 6eb4 e6bd ade7 653d
00000160: 7140 da3e 2b52 f83d cab1 303e 54fe 043e
00000170: 6c43 b2bc 1850 103e e377 0a3e ab4c 4b3d
00000180: 66bc 2cbe c28d 29be 579a 403e 6f2d 63be
00000190: e23b 99bd ec5e d33c eec0 94be e734 65be
000001a0: 8ae0 043c d77a 19be 97fd 843e c649 04be
000001b0: 6a36 8bbe 707d bfbd 83d9 5abd 61e0 40be
000001c0: c1b0 11be 6d06 983b 3a8e 103e 4b3b ae3d
000001d0: 22fc 25bd 4a86 91be 12f0 263d b753 4e3d
000001e0: 4a1d 33be 1aba c7bd 1a68 073d 822c 163e
000001f0: 810a a13d d26d 9ebd 590c 9cbe 9f95 083d
00000200: d8c2 67bd 2be7 863d 6531 68be 0b01 fa3d
00000210: 3cce c43d edbc 56be e7d7 393d ddf7 a0bd
00000220: 5fc7 38be f3d0 e5bd 94ac 493e 608a b5bd
00000230: ed65 ba3d d727 51be 25a9 b23d 5779 e0bc
00000240: 9cb2 0f3e 332a e03d 4173 84be 9f01 923e
00000250: b1b9 c03e 7f2f d43d 45fb 0abe 1f52 18be
00000260: 58b1 373e 008a 92bd 3184 76be c43a 0cbe
00000270: 9023 84be d392 36be 9b45 29bd cdb5 21ba
00000280: bfee 183e 8d15 49bc 7ae2 843e eacf 2b3e
00000290: 27aa 823d d7df aa3d 9051 593d 0784 993d
000002a0: 9aef 303e e4cd 87bd 0536 883d 9df3 293e
000002b0: 910a 2e3e 9d10 68be 3b03 843d d991 24bd
000002c0: a60c f63c 6f55 07be 3932 f6bc 94ac 50bd
000002d0: 57a0 97be 780a cc3d a2a3 4d3e 9248 723e
000002e0: 4374 e1bc e12d 98bc 1336 3abe d26b b13e
000002f0: 5d0e 8dbe add9 bebd 05c8 693e 5bab 943e
00000300: ac82 4ebe a2d4 50be 3bbb f8bd 06c2 7bbe
00000310: 874a d3be 4214 13be 3d4e 3cbe 0f9b dfbe
00000320: f021 143e 2100 27be da5a f33d 89a5 ad3e
00000330: 9503 08be 327e 67be d910 93be 33fe 01bd
00000340: 557e 16be 5918 66bb 6ac3 49be e1c7 183c
00000350: e826 bd3d 69da df3d a6a1 14be 447c da3d
00000360: 39bd a7be 363e 863e c433 503e f82a 293e
00000370: d998 e93e 1dd4 babd 358e 99bd c27b b1be
00000380: 194a 3dbe 1b36 c2bd 3586 093e 8d6c 8abe
00000390: da99 cb3d 457d 473e 16fd ffbe 1613 9cbe
000003a0: adb6 5a3e 331d 183d 30dc 723e 9e43 a63e
000003b0: d83a 2f3d bb65 d6bc 8727 f13d 8989 f13e
000003c0: 9b1e ae3e c771 4d3e cf61 95be be1a 27be
000003d0: ad49 40be ef6f c13d 07e6 c9bc fc15 f83d
000003e0: d81d ca3c 6703 06be 3f37 e93b 208d 5d3d
000003f0: 3156 e13c d29c 983e e806 893e 61ba 3cbd

layers.layer_4.bias f4 [20]
0.11644585 -0.13955139 -0.15820315 -0.42368308 -0.08395981 -0.11046389 -0.123552784 -0.034018397
-0.23996441 0.20464867 -0.096008115 0.009385372 -0.10896402 0.16590054 0.16835013 -0.15291394
0.007353443 0.102338254 0.14396149 0.17171472
00000000: 297b ee3d 8fe6 0ebe 0200 22be fdec d8be
00000010: 1ff3 abbd e43a e2bd 3e09 fdbd e056 0bbd
00000020: 3bb9 75be 6c8f 513e e79f c4bd 1ac5 193c
00000030: 8728 dfbd d5e1 293e fa63 2c3e 7995 1cbe
00000040: 27f5 f03b b896 d13d a46a 133e fcd5 2f3e

layers.layer_5.weight f4 [20, 20]
0.25396383 -0.29734102 -0.15712479 -0.27068266 0.12864743 0.050584372 -0.13583085 -0.21039712
-0.23280708 -0.03198789 -0.1258642 0.08501975 -0.044386264 0.24068084 0.10626436 -0.06659642
0.020884465 -0.0526689 -0.19215156 0.29459253 -0.07952274 0.2647071 -0.18376078 -0.18015786
0.15767112 -0.24755532 -0.023002282 0.19923681 0.026324289 -0.12293034 0.23710553 -0.30851948
0.043302704 0.029432938 0.27113223 -0.15255706 -0.10997342 0.0540925 0.3825525 0.10762876
0.2924703 0.11285804 -0.13667734 0.077085555 0.12877345 0.114400946 0.07965088 -0.26664424
0.020822687 0.085344 -0.12769523 0.1405919 0.08727413 0.3302825 -0.15420175 -0.14444594
-0.04987888 0.059985973 -0.14173006 -0.03229863 -0.14449003 -0.13552272 -0.08806449 0.12149765
-0.0522183 -0.13684215 -0.009518037 0.29289532 -0.07982051 0.043777518 -0.021170288 -0.31173217
-0.17254968 -0.08125444 0.29596868 -0.06942072 0.10913659 0.16067812 0.32652387 0.05797773
-0.23215276 0.17632794 -0.24180241 -0.1576145 0.041423123 -0.24691205 -0.0028244616 -0.024822462
0.24352874 -0.049856596 0.06418496 0.0036916817 -0.13447975 -0.020614857 -0.011198102 -0.24185507
-0.16506985 -0.051974792 -0.106358506 -0.08798617 -0.20614116 -0.08232061 -0.14070484 0.13934328
0.2759525 -0.18069358 0.23361333 0.12005898 0.053424265 -0.08806198 0.0053588133 -0.114911295
-0.26366347 -0.17757387 0.30886894 -0.06444699 -0.061095316 0.071939304 -0.10096595 -0.05039388
-0.13734654 -0.21013525 -0.22283141 -0.25074643 0.086128145 -0.22514725 0.040498905 -0.010168316
-0.09678008 0.19728291 0.21444845 0.066168584 -0.03818507 -0.15023713 0.020183599 0.1394841
-0.1675491 0.2482497 0.3900498 -0.027142977 0.19570647 -0.0122586405 0.24525578 0.023594094
-0.03829076 -0.023199363 -0.031830106 -0.028092477 0.08229456 -0.08756145 -0.10151235 -0.19247833
-0.1282071 0.23510866 -0.1895541 -0.13143972 -0.0029521114 0.16441277 0.003851477 0.07123126
-0.028148782 -0.11182327 -0.06293117 -0.42232856 -0.117625915 -0.08509348 0.21341954 -0.05308258
-0.11785571 0.0021567114 -0.13262497 0.049310926 0.11870882 0.30023974 -0.22926095 -0.278599
-0.15093412 -0.2611908 0.06484323 0.08388887 -0.049159527 0.14864638 -0.045002162 -0.030469945
0.11564659 0.056593638 -0.010971742 0.10019055 0.10913586 0.15988146 0.2266899 0.10915535
-0.14990789 -0.29787093 0.24983583 0.075469494 -0.05256419 -0.17344502 -0.21007326 -0.16824275
-0.25902978 -0.0068301396 -0.17113683 0.035471074 -0.06302902 -0.3257397 0.13724242 -0.1757326
-0.12614504 0.2242018 0.24061945 0.1873745 -0.22434944 0.029368024 -0.106098235 0.07969055
0.14260125 0.12620084 -0.012193488 -0.07854077 -0.29898754 0.013215798 -0.09880376 -0.04240911
0.16133584 -0.31926256 0.35579112 0.25350925 0.16856824 0.33549267 0.0026574535 -0.038275305
-0.06553283 0.031748787 0.3071675 0.046051398 0.033214502 -0.039634343 0.32577842 0.035077136
0.19670358 -0.3674669 -0.029847253 -0.11856406 -0.23454228 -0.17328309 -0.049052782 0.2211457
-0.012066328 0.06691954 -0.24457096 -0.10290633 -0.004748779 -0.030694103 -0.24758452 -0.3621797
00000000: 8c07 823e 153d 98be 52e5 20be eb96 8abe
00000010: 27bc 033e 8f31 4f3d 3e17 0bbe 5872 57be
00000020: fb64 6ebe bc05 03bd 8be2 00be d61e ae3d
00000030: 5fce 35bd 0a75 763e 21a1 d93d b463 88bd
00000040: e615 ab3c 58bb 57bd 61c3 44be d5d4 963e
00000050: d1dc a2bd b087 873e c92b 3cbe 4d7b 38be
00000060: 8a74 213e 247f 7dbe 486f bcbc bc04 4c3e
00000070: 09a6 d73c e7c2 fbbd cbcb 723e 44f6 9dbe
00000080: 2d5e 313d 581d f13c d8d1 8a3e eb37 1cbe
00000090: bf39 e1bd 1990 5d3d ecdd c33e 786c dc3d
000000a0: abbe 953e 1e22 e73d 25f5 0bbe 08df 9d3d
000000b0: 30dd 033e 0b4b ea3d 0020 a33d 9885 88be
000000c0: 5794 aa3c d6c8 ae3d 8ac2 02be 53f7 0f3e
000000d0: c7bc b23d ca1a a93e 10e7 1dbe a3e9 13be
000000e0: cc4d 4cbd dab3 753d af21 11be 914b 04bd
000000f0: 32f5 13be 78c6 0abe 285b b4bd c3d3 f83d
00000100: dbe2 55bd 5920 0cbe 8af1 1bbc 60f6 953e
00000110: f078 a3bd 0e50 333d 506d adbc 5c9b 9fbe
00000120: ddb0 30be ba68 a6bd 3589 973e 732c 8ebd
00000130: 0183 df3d ce88 243e 232e a73e 0e7a 6d3d
00000140: 74b9 6dbe 508f 343e 0d9b 77be b265 21be
00000150: 4bab 293d 83d6 7cbe 9a1a 39bb 7a58 cbbc
00000160: 995f 793e 6e36 4cbd 6873 833d 24f0 713b
00000170: 0fb5 09be 7de0 a8bc 3e78 37bc dba8 77be
00000180: 1208 29be 85e3 54bd 7dd2 d9bd 1832 b4bd
00000190: ab16 53be b597 a8bd ee14 10be 01b0 0e3e
000001a0: a549 8d3e bd07 39be 5538 6f3e 7ce1 f53d
000001b0: 67d3 5a3d d759 b4bd fc98 af3b 9d56 ebbd
000001c0: e6fe 86be edd5 35be 1224 9e3e c9fc 83bd
000001d0: 153f 7abd ea54 933d 3cc7 cebd d069 4ebd
000001e0: 92a4 0cbe b22d 57be eb2d 64be d661 80be
000001f0: f463 b03d 008d 66be 2ee2 253d 0299 26bc
00000200: a234 c6bd 8804 4a3e 6098 5b3e 6583 873d
00000210: f367 1cbd c3d7 19be 1358 a53c ebd4 0e3e
00000220: fe91 2bbe 2b35 7e3e 9bb4 c73e f35a debc
00000230: 4767 483e 77d8 48bc 5524 7b3e 6748 c13c
00000240: c6d6 1cbd 970c bebc 4960 02bd 3222 e6bc
00000250: 0d8a a83d 6b53 b3bd b5e5 cfbd 0a19 45be
00000260: b948 03be 53c0 703e 781a 42be 2298 06be
00000270: 3678 41bb d25b 283e 1069 7c3b b2e1 913d
00000280: 4698 e6bc 9903 e5bd 0fe2 80bd 733b d8be
00000290: dbe5 f0bd 7e45 aebd a78a 5a3e 1f6d 59bd
000002a0: 565e f1bd 9d57 0d3b d7ce 07be 41fa 493d
000002b0: 9c1d f33d 06b9 993e 62c3 6abe 87a4 8ebe
000002c0: 798e 1abe cdba 85be 87cc 843d eecd ab3d
000002d0: 805b 49bd c236 183e 3054 38bd 1b9c f9bc
000002e0: 1fd8 ec3d bbce 673d d2c2 33bc b430 cd3d
000002f0: 9f82 df3d f7b7 233e 6621 683e d78c df3d
00000300: 7481 19be 8a82 98be f7d4 7f3e c08f 9a3d
00000310: 8c4d 57bd 929b 31be 721d 57be d447 2cbe
00000320: 8d9f 84be 5dcf dfbb 7e3e 2fbe 1e4a 113d
00000330: 5c15 81bd 5bc7 a6be 4789 0c3e 3ff3 33be
00000340: 2a2c 01be 2895 653e f264 763e 1adf 3f3e
00000350: dcbb 65be 3695 f03c 084a d9bd cd34 a33d
00000360: 1006 123e cb3a 013e 32c7 47bc fcd9 a0bd
00000370: e514 99be 1387 583c a059 cabd 2db5 2dbd
00000380: 3935 253e 6276 a3be 412a b63e f7cb 813e
00000390: 279d 2c3e b2c5 ab3e ac28 2e3b 91c6 1cbd
000003a0: 1436 86bd 040b 023d 0f45 9d3e 64a0 3c3d
000003b0: ee0b 083d 9f57 22bd 6ecc a63e 0bad 0f3d
000003c0: aa6c 493e 9f24 bcbe 3a82 f4bc b7d1 f2bd
000003d0: da2b 70be 1f71 31be 92eb 48bd 0574 623e
000003e0: d9b1 45bc 1d0d 893d cf70 7abe 8ec0 d2bd
000003f0: a59b 9bbb 3372 fbbc cc86 7dbe 9e6f b9be

layers.layer_5.bias f4 [20]
0.05855854 0.16891581 -0.03776688 0.038552232 0.21821615 -0.054623973 0.26344684 0.3025252
0.2471915 0.18304868 -0.06661372 0.3471054 0.2691309 -0.15026967 0.3331994 0.024371112
0.11704635 -0.32700557 0.2417225 -0.023397688
00000000: 14db 6f3d 44f8 2c3e 72b1 1abd f2e8 1d3d
00000010: 0e74 5f3e 63bd 5fbd 81e2 863e 95e4 9a3e
00000020: c51f 7d3e 1d71 3b3e c66c 88bd cdb7 b13e
00000030: 86cb 893e 4be0 19be 1d99 aa3e eda5 c73c
00000040: ffb5 ef3d 466d a7be 1a86 773e 82ac bfbc

layers.layer_6.weight f4 [1, 20]
0.12152292 -0.12728316 0.12546907 -0.06683365 -0.04967129 -0.032330617 -0.011404389 0.12646279
-0.0022055306 -0.23696978 -0.08822212 -0.22842935 0.1320841 -0.16538405 0.2158914 -0.12160296
0.23217633 -0.13369974 0.1570447 -0.19229299
00000000: 02e1 f83d 8456 02be f77a 003e 15e0 88bd
00000010: 1f74 4bbd 1c6d 04bd 79d9 3abc 767f 013e
00000020: aa8a 10bb 35a8 72be cdad b4bd 62e9 69be
00000030: 0e41 073e 705a 29be a312 5d3e f90a f9bd
00000040: a2bf 6d3e 96e8 08be 53d0 203e 74e8 44be
